hw8/result_hw8/best_kernel.npy (npy, 6400 bytes, 1 tensors)

array f8 [16, 7, 7]
000000 38 99 a3 06 9b b4 cd 3f a0 0c 63 63 a6 57 df bf
       0.23207414459393205 -0.48972472863915506
000010 e0 81 6a 88 1c 0a bf bf 40 67 d2 4f f6 e9 e8 3f
       -0.1212480385825141 0.7785598334332704
000020 38 5c e0 0c c9 e6 ee 3f c2 6d d3 43 8d 00 e9 3f
       0.9656720401279761 0.7813173603748782
000030 7e 2d 07 fb 90 00 ee 3f 98 34 7d 36 cb 40 e7 bf
       0.9375691321269384 -0.7266593994369428
000040 0c a6 16 0a 2c 00 de 3f 4e 01 9b 39 6d 66 e3 3f
       0.4687604998131014 0.6062532544238282
000050 48 0d 5c 6e 54 03 da bf 5e bc 7c c7 4f 04 e3 bf
       -0.4064532354097605 -0.5942763229594552
000060 9c 2e 74 f9 b9 e2 d7 3f 06 be bd b4 60 00 e8 bf
       0.37321328507162277 -0.7500461130238711
000070 58 63 ae f2 13 e1 e3 3f 66 a3 d3 64 ec cb ed 3f
       0.6212253322474721 0.931142994811222
000080 32 a6 ed 63 e4 7b e3 bf 28 a1 20 80 84 f2 c3 3f
       -0.6088735534405656 0.15583854919646822
000090 ea ee 6f fc c1 36 e8 bf aa 17 60 3b 98 6f ec 3f
       -0.7566842966475325 0.8886223945307752
0000a0 f2 c9 a1 fe 2b 64 e4 3f f4 d5 3c a1 4a b1 d7 3f
       0.6372280095368394 0.3701960157953572
0000b0 00 68 ea 06 46 4d 90 3f fa 96 9c 7e 75 b5 e1 3f
       0.01591977517328047 0.553400752342639
0000c0 a4 b3 56 16 13 72 d7 bf 82 b1 ff ae 26 77 e1 bf
       -0.3663375585700186 -0.545794812960182
0000d0 8c ef 2d 6b df a7 ea bf bc 8d 9f 26 41 56 eb 3f
       -0.8329922765110367 0.8542791132317045
0000e0 86 a2 07 c5 4f 76 e6 bf e0 6f 70 70 05 ea a1 3f
       -0.7019423340071433 0.034988565421570916
0000f0 cc eb b1 82 89 08 d9 3f cc d5 38 4d e2 7c e0 bf
       0.39114606631454474 -0.5152446277849605
000100 5c 5a a9 07 88 24 dd 3f 00 83 2a 34 cf e7 c9 bf
       0.45535469768711834 -0.20238676116152732
000110 5e 21 51 00 ee e2 e1 3f e0 49 1f 39 b6 fa dc 3f
       0.5589513784589533 0.4528022344431104
000120 3c 54 58 0d 74 23 d6 bf 08 0a 1e cd f8 e1 c5 bf
       -0.34591389945245843 -0.17095861449713845
000130 d0 d3 28 38 f9 87 e4 3f 02 b1 db 11 0e a9 ee bf
       0.6415983292450793 -0.958136591796148
000140 22 89 64 36 f3 80 e6 bf 20 cd b3 a7 d2 c4 b2 3f
       -0.7032409727437747 0.07331577867789862
000150 dc 40 08 e5 6c 25 d0 3f dc a7 06 78 5e 8f eb bf
       0.2522842632906881 -0.8612511009462156
000160 fe cf 68 fd 25 06 ea 3f 08 d2 1e 32 a4 82 e2 3f
       0.8132505368616874 0.578447435275451
000170 60 95 14 ab 74 58 ec bf 04 3f bd 07 ea a6 e8 3f
       -0.8857978192724367 0.7703752661854826
000180 3c 99 96 3b ed cf d6 bf 14 0a a2 f8 aa ac e8 3f
       -0.3564408380429034 0.7710776191818831
000190 e0 35 c1 a4 f6 6e d5 3f 30 18 3f fc 2d 5b c6 bf
       0.33489767159775674 -0.17465758148881738
0001a0 e2 ad 6f 16 69 b5 e7 bf a8 22 bb e7 71 a0 d7 bf
       -0.740894836254878 -0.36916778211574774
0001b0 b2 09 8c 7d 06 f2 e3 bf fe 43 ff 1d bf 7f e1 bf
       -0.6232941104975025 -0.5468440614587278
0001c0 16 3c 26 b7 37 86 e6 bf f8 93 c8 aa b5 c2 ed 3f
       -0.7038839890609576 0.9300182662597072
0001d0 00 40 76 a1 33 89 67 3f 40 d4 a0 69 0a 48 b4 3f
       0.002873040047866482 0.07922425345243855
0001e0 58 6b 95 87 9d bd d9 bf 48 34 55 1c b3 00 ed 3f
       -0.4021982025203008 0.9063354066253249
0001f0 b0 4b af 48 82 ee cd bf f0 da d6 c7 b6 62 bf 3f
       -0.23384121464786523 0.1226000059021819
000200 a2 53 c4 76 89 52 ed 3f b0 d8 1d 6e 55 fb be 3f
       0.9163253135362661 0.12102254808800939
000210 70 b4 1d 6a 43 a8 bd bf dc 97 48 a7 17 bd ea bf
       -0.11584874478076457 -0.8355825679070636
000220 c8 6b 75 11 74 71 ef 3f 82 52 a3 54 30 f1 e1 bf
       0.9825992909421695 -0.5606919911466124
000230 38 46 e3 be 8e 85 e5 bf bc 72 8e 6d 43 70 ea bf
       -0.6725534179951813 -0.8262040271543678
000240 7a 37 d8 01 81 22 eb bf 36 5c 01 01 fb b9 e0 3f
       -0.8479619060542369 0.5227026958117509
000250 dc 66 e4 3b 3d 6a d3 3f ea 15 b6 f0 c1 9b e1 3f
       0.303359325874778 0.5502633763687161
000260 d0 e4 60 f7 ed 5d b8 3f b6 c4 93 55 1a d3 ea bf
       0.09518325128091765 -0.8382693931036076
000270 c0 2e cc 79 77 81 d1 bf 10 81 6f d5 bf c1 e3 3f
       -0.27352702040000665 0.617401043764433
000280 dc 93 c2 bf ba bb dd 3f e0 e2 cd a1 83 bb ca bf
       0.46458309866494374 -0.20884747887227828
000290 64 3d 66 5f 98 25 d0 bf 70 3f 4a 0a ba 70 cc bf
       -0.2522946292528643 -0.22219014646952528
0002a0 a0 b7 d5 74 e8 28 dd 3f 86 83 dc 56 61 01 eb bf
       0.45562182817126917 -0.8439184853087773
0002b0 e4 69 75 21 f0 64 ee 3f c8 b3 36 18 14 2c e4 bf
       0.9498215344895553 -0.630380675594659
0002c0 98 42 b2 49 cd b3 ce 3f 80 90 a8 99 9d 9f c0 bf
       0.23986211870626017 -0.12987108233312838
0002d0 2c 2a 49 a9 13 83 e4 3f 98 9e ba 64 6c 59 ca 3f
       0.6410005861628796 0.20585398596198412
0002e0 2c af a4 4e 53 ec eb 3f aa 69 2a a5 08 9c e4 bf
       0.8725983177186882 -0.6440470910923086
0002f0 74 38 ea d4 57 cf d9 3f 40 61 64 ea 3f e0 dd bf
       0.40328021805260694 -0.46681211366514574
000300 14 de e0 c7 0f 51 ec 3f ba 2f 5d db 8c b1 eb 3f
       0.8848952201723841 0.8654236111119566
000310 7e c7 ef bc 86 43 ec bf 00 4c 89 da fc c4 d9 bf
       -0.883242959038611 -0.402648175634738
000320 ee 7a 86 72 ab 2e ef 3f 02 96 ec af 01 7e e4 bf
       0.9744469868490719 -0.6403816638964488
000330 84 4a 6c 36 61 20 d8 3f 64 61 cb 50 c4 e2 e0 3f
       0.3769763022875525 0.5276815011994072
000340 3a 49 1c 8d 3b 49 ed bf 8c a8 c9 cd de 20 ee 3f
       -0.9151895290436081 0.9415124911586346
000350 80 29 dc 6e 1a 40 b9 bf 20 53 34 08 f7 f9 da bf
       -0.09863438803237123 -0.42150665093622486
000360 a8 27 fe 05 01 4d d6 bf 00 2d 34 d7 92 3b a1 3f
       -0.34844995103105214 0.033657635469433345
000370 58 be 89 49 12 ed cd 3f f0 ce 0f b8 6e d9 c2 bf
       0.2337973460266649 -0.14726051318540767
000380 44 5d b8 9a 4e 8f db 3f 58 1e 8a 76 73 6f eb 3f
       0.4306217680873099 0.8573548617577655
000390 6e da f8 87 5a bf e9 3f bc 24 d6 be de aa d9 3f
       0.8046085982994791 0.4010540832173992
0003a0 d4 23 c1 63 d7 ac d6 3f 20 d8 31 96 eb 08 da 3f
       0.3542993997730808 0.40679444949580734
0003b0 b8 f6 e0 62 52 74 e8 3f 4a 36 ec 2e 6f 30 e6 bf
       0.764199441073024 -0.6934123913249064
0003c0 e4 48 ed 6d a3 d8 dd bf ec 4e 80 44 7c 19 e4 3f
       -0.466347558355791 0.628111013213553
0003d0 94 07 7a a3 75 db d9 3f b8 c5 33 3a 23 1e cc bf
       0.40401974644202565 -0.21966972677141228
0003e0 00 42 54 46 3b 56 e5 bf 64 23 1e c6 f5 9c d8 bf
       -0.6667763112655507 -0.38458008143839195
0003f0 18 b8 98 01 94 62 cb 3f 2e 1f 9a eb a4 46 e5 bf
       0.21394586637455926 -0.664873562011939
000400 38 d3 4b bc 85 3e e2 bf ce 7e d4 54 d3 41 e7 3f
       -0.5701321294460291 0.7267853409611804
000410 64 c0 a0 76 a3 fd e3 bf cc 12 f0 8d a5 01 ee 3f
       -0.624711734481036 0.9377010128233336
000420 a0 49 7c 7c aa 53 a5 bf ac 2b 9c 54 de c8 ec 3f
       -0.04165394563291902 0.8995200779476042
000430 6c ae 74 56 ff 74 e5 3f b8 a2 18 92 90 82 c6 bf
       0.6705319107617931 -0.1758595193253052
000440 a4 79 27 98 0b 27 df 3f c8 86 0d fa 81 21 db bf
       0.48675813540276125 -0.42392014903280684
000450 c8 a4 78 c5 32 46 db 3f 68 81 b4 cb e7 21 d2 3f
       0.4261595657759014 0.28331942456318027
000460 04 8e 25 fe e5 cc e8 3f 4e d7 b5 3c a5 ba e4 bf
       0.7750120128443432 -0.6477838693378801
000470 e6 7a 4a 17 93 79 e4 3f ba eb 2e f7 10 84 e4 bf
       0.6398406462575081 -0.6411213710592769
000480 d0 1b 40 19 a5 70 b1 3f 58 4f e7 19 2d d2 eb bf
       0.0681250750204605 -0.8694062715462492
000490 e0 92 c4 fb da 8e cf 3f 20 b1 af 81 3b 98 b4 bf
       0.24654710095742072 -0.08044788280648563
0004a0 48 21 41 fb 13 39 c9 bf 08 dd 59 a9 e5 55 d7 bf
       -0.19705438392908037 -0.3646177438563005
0004b0 c8 44 db 14 d0 57 cb bf 88 b6 82 1d a2 c1 ca bf
       -0.2136173345411747 -0.20903421822497514
0004c0 82 2c 6c b1 e3 5f e3 3f 68 98 a0 f9 b4 2a d6 3f
       0.6054552521976719 0.3463566243903018
0004d0 e4 49 e1 7a 93 8c d0 bf b8 51 70 c8 0a c1 d4 3f
       -0.2585800838470773 0.32428235601517086
0004e0 00 78 25 76 8d 38 ef 3f bc d8 2e 17 a2 68 ed 3f
       0.9756533916040553 0.9190226033013214
0004f0 50 b2 45 a0 ee 7f c2 bf 88 e6 5f 5d 78 cd d3 3f
       -0.1445291788653713 0.30941590422262566
000500 f8 42 4f ad f3 8a d0 3f ac 47 50 56 e7 e7 dc bf
       0.2584809486843791 -0.4516542761713207
000510 40 f9 d4 4f 2e c7 ce bf c0 ab b9 61 f7 fd df bf
       -0.24045351884883281 -0.4998758749340446
000520 5c a7 f3 54 22 bc ea bf c4 de b9 4b 80 d6 ea 3f
       -0.8354655894483858 0.8386842230820197
000530 a0 09 b1 17 d2 2f df bf 76 e1 a7 ab 7a 93 e5 bf
       -0.4872937423098396 -0.6742528298046142
000540 16 da 26 70 e0 0a ed 3f 74 1f 33 39 e4 cf d7 bf
       0.907577723547379 -0.3720636900511558
000550 62 c1 ef fd 9e 31 ed bf 20 00 8c 23 88 c2 ee 3f
       -0.912307258577169 0.9612465566897335
000560 54 01 ee a6 82 db e5 3f b0 50 6b 15 02 24 bf 3f
       0.6830456981988768 0.12164319060258566
000570 ec 5c d6 9a 4b 0a e0 3f 68 2e 11 77 6f ed ee 3f
       0.5012567543189141 0.9664838147668435
000580 38 f9 de a8 c5 7c c0 3f 32 53 46 9d 18 ac ea bf
       0.12880774255422422 -0.8335078307887669
000590 8c 98 85 de 07 96 ed 3f 04 d8 a6 54 2a 61 d1 3f
       0.9245642992143686 0.2715555025746428
0005a0 2c 9c 98 5a 96 2d ec 3f 30 5b 32 d2 23 d7 bc 3f
       0.8805648583846781 0.1126577747512385
0005b0 8a 51 7b 2e 33 a9 e1 3f f4 9a 17 97 89 00 ef 3f
       0.5519042880865055 0.9688156081218424
0005c0 d0 5c dd 49 f2 2a e3 3f 56 f3 94 b9 00 7e e2 bf
       0.5989924853010056 -0.5778812050481104
0005d0 44 d7 53 62 e0 16 e3 3f 68 07 45 fe dd ca cd bf
       0.5965425415476848 -0.2327535144377706
0005e0 58 79 b7 7d 0e cb cc bf 98 00 88 dd 57 2d e1 bf
       -0.22494679583082688 -0.5367850615293888
0005f0 50 cd 5e 85 35 26 b6 bf 40 bd 4c ad 2f 85 eb 3f
       -0.08652052408324562 0.860008085704898
000600 c4 1b 13 2a 47 4e db 3f 64 53 8d ca 54 d5 da bf
       0.4266527090916805 -0.41927070408319467
000610 f0 7a 1e a4 25 9b db 3f d2 3a 23 cb fa 9d ea 3f
       0.4313444235539654 0.8317846267253464
000620 da 3d 48 13 b9 45 e3 3f 00 7c 20 51 6c d1 b4 3f
       0.6022611023526523 0.08132054310452475
000630 48 20 d4 33 ae ea e3 bf 96 fb 83 b2 0d a9 e2 3f
       -0.6223975193288505 0.5831364142066942
000640 00 2b 6a 23 72 dc 80 bf 12 b6 f6 4c 54 5f e8 bf
       -0.008232967096110766 -0.7616368773648807
000650 e6 96 04 2d 96 92 e1 bf 70 81 29 f5 7c b6 d7 bf
       -0.5491438750511548 -0.3705131906663359
000660 f8 6e 78 f5 a5 4d df bf b0 50 ab 73 2e c0 d5 bf
       -0.48911427470896696 -0.33985482497997577
000670 42 47 8d 8f 4a f3 ea bf 90 bc 09 c6 d2 a9 c8 bf
       -0.8421986392733987 -0.19268259687257627
000680 24 d5 dd bc ac f7 d0 3f 40 9c a6 27 64 49 a4 bf
       0.2651168674850217 -0.03962243064898319
000690 b8 f6 6f 60 bc 23 c7 3f f0 91 5b d3 4f 00 df 3f
       0.180778071487955 0.48439403190994224
0006a0 8c c8 aa f0 ff 19 d8 bf c0 30 9e c1 22 8d 91 bf
       -0.37658689978264515 -0.01713995272398061
0006b0 10 0b cb 9a ce 0a c6 3f 3e ae 06 01 b3 09 eb bf
       0.17220480497606916 -0.8449339885750715
0006c0 58 ee 6b 77 28 3c c3 bf 48 2f f8 94 30 48 cf bf
       -0.15027337866910062 -0.24439055704021428
0006d0 40 d6 31 78 3e a5 db bf 68 68 77 48 a2 55 d1 3f
       -0.4319606946731689 0.270851679580693
0006e0 80 8f 15 c9 2f ee 97 bf 30 8e a2 2b fb 15 c6 bf
       -0.023369547508437005 -0.1725458109914242
0006f0 92 75 02 9f 46 19 e2 3f 48 9d c7 c9 f5 2c e6 3f
       0.5655854325920464 0.6929882946978205
000700 d4 6b 87 da 69 ef e0 bf 50 c1 1f cc bc 88 da bf
       -0.5292252796310728 -0.4145957940482008
000710 b0 e8 dc 7a a6 c1 cf bf fe 7e ac 99 ff f6 e7 bf
       -0.2480972385326985 -0.7489011765901237
000720 a8 42 3f bb 8c 2d c4 bf 72 e8 ce 86 6e 4f e2 bf
       -0.1576400675098928 -0.5721962578748061
000730 e0 e8 9b 86 94 e7 e2 3f 3c 01 e7 85 7f 16 dd bf
       0.5907690648157562 -0.45449817730333897
000740 18 21 1a e1 dc d8 c1 3f e8 cf a9 03 ec 43 d9 bf
       0.13943062774001969 -0.39477062566515864
000750 e8 2d f8 06 0f a2 ea bf 74 6c 2f 6a 46 36 d3 3f
       -0.8322825561639862 0.30018768663075623
000760 c0 2b cc f5 78 7c ee 3f 76 ce 58 fb bc d3 ec 3f
       0.9526943970425847 0.9008469494933269
000770 20 03 06 08 39 9a d3 bf bc 0f ed 81 11 cf d1 3f
       -0.30628801139396167 0.27826345146263143
000780 e2 0c ac 9e 6d c3 e3 bf 00 8f a1 0c d2 31 d7 3f
       -0.6176059817375086 0.36241580232147896
000790 28 8b 88 c5 41 c6 cf bf 34 8e 89 b8 c5 b5 dd 3f
       -0.24823782105621572 0.46421950360511066
0007a0 3c 0c 34 8d 9d 24 d5 bf c4 2b d7 1a 0b d3 dc 3f
       -0.3303598288477507 0.45038106557029445
0007b0 28 d3 11 b0 f7 be d6 bf 9c 20 23 d7 b1 18 d4 bf
       -0.35540573305415757 -0.3140072442006472
0007c0 40 97 e7 7c 78 6e ec 3f 26 7a 31 ca 11 0c eb bf
       0.8884851874870279 -0.8452233265960032
0007d0 00 9c 9b 1a 24 1e 7a bf c2 3e 2b 42 5b 97 e5 bf
       -0.006376400977138097 -0.6747261326181262
0007e0 1c c5 02 0a 90 06 ef bf 06 83 8c d4 e3 43 ea bf
       -0.9695511050723868 -0.8207873488755417
0007f0 f0 73 72 4e aa ad cc 3f 64 65 c4 ee 66 42 e5 bf
       0.22404984312461762 -0.6643557227536516
