hw8/result_extra/best_kernel7_k9.npy (npy, 2720 bytes, 1 tensors)

array f8 [4, 9, 9]
000000 88 21 86 40 dd f3 d3 3f 62 b8 c1 b8 b8 a1 e3 3f
       0.3117592935673419 0.6134914024858171
000010 78 4d 85 3b 18 08 d8 3f 98 7e 89 9c d6 94 c8 3f
       0.3754940587288824 0.19204218524372574
000020 70 1c 0f b2 96 c5 de bf 32 8c ba ce 37 27 e4 3f
       -0.4808098543985073 0.6297873532934146
000030 24 78 f8 ae ec 7c ec 3f 42 c1 c8 5d 8c 8a e0 bf
       0.890249578227444 -0.5169126350138316
000040 f0 bd 54 03 2b 48 ce 3f 48 eb 2d 1f 25 71 e3 bf
       0.23657739317557924 -0.6075616463634583
000050 52 a2 11 cb 2f e4 e3 3f be ff bb 14 d1 f9 e9 bf
       0.6216048208417055 -0.8117452053993401
000060 ce 30 cf f4 4e 42 e6 3f e0 16 ec 0a 36 64 e1 bf
       0.6955942899162666 -0.5434828008007706
000070 64 dd 77 85 73 6b e1 3f 40 75 09 c6 05 df 9d 3f
       0.5443666083146295 0.029171076023307707
000080 2a db c8 1d 39 79 e4 3f e0 8d 45 eb 93 0c b3 bf
       0.6397977430086474 -0.07441067212999242
000090 6c d8 9e 64 1c be e0 bf 8a bb 07 ff fe a8 e1 bf
       -0.523206898235697 -0.5518794041689585
0000a0 f0 3d 97 99 e1 52 d9 bf b8 a1 fc 90 51 a9 d6 bf
       -0.39568367003536675 -0.3540843883406768
0000b0 26 ce a5 65 44 71 ee 3f b4 ce 4b 30 a7 a2 ec 3f
       0.95132655957281 0.8948551123889588
0000c0 14 37 be 0e b1 a6 d4 3f 70 6f 23 58 4c 3b e2 3f
       0.3226740497565157 0.5697385522321223
0000d0 90 d0 8c 8e a1 ba e0 bf 98 e5 fe 49 b5 06 cb bf
       -0.5227821144276437 -0.21114221680708734
0000e0 08 85 a0 50 f1 22 c6 bf 1c 4e 8f d4 27 d6 ee 3f
       -0.17294136463991827 0.9636420394476235
0000f0 c0 7b 50 7d cd 90 ab 3f 00 77 6f 85 f3 33 ee bf
       0.05383913187710432 -0.9438417059097617
000100 24 c8 88 43 00 ba e7 bf d8 d5 8c df 77 11 cf 3f
       -0.7414552039174436 0.24272058883222658
000110 18 7a c1 57 30 ad cf bf 70 ab 8b 86 e3 d1 d7 3f
       -0.24747280392598792 0.3721855939790464
000120 c0 cc 52 0f be d8 ab bf 60 d9 5c cc 32 1f e4 3f
       -0.05438798844388648 0.6288084022005869
000130 76 3b cb 46 5a 1e eb bf a4 a3 16 c3 69 eb d5 3f
       -0.8474551565831081 0.3424934773598187
000140 e4 5c 3d b5 2d e6 ec 3f b4 72 07 97 1f 70 ea 3f
       0.9030979671323647 0.8261869382655136
000150 fc 72 62 a0 4f 62 e9 3f 56 fa 89 42 2e 9a ef bf
       0.7932508595000338 -0.9875708865727784
000160 28 e4 d0 b8 b1 35 df bf 66 93 3f 67 b9 f9 ee bf
       -0.4876522354930466 -0.9679839150017926
000170 d8 5b 29 91 d8 6c e4 3f 24 43 3f c6 a7 83 d7 bf
       0.6382868609606431 -0.3674106060034765
000180 a0 d9 be e4 5f 0c e6 bf 96 23 31 2e 73 60 e0 3f
       -0.6890105693517405 0.5117736723124036
000190 e0 09 fd 53 4b 3b ef bf a4 21 fa a9 a1 34 d4 3f
       -0.9759880676650106 0.3157123718197232
0001a0 f8 cd 1b 8c 84 d3 e5 3f 90 ce fd 30 2a 4e e5 bf
       0.6820700394150085 -0.6657916027892998
0001b0 10 19 34 b6 01 aa c5 3f a2 15 da aa 93 1a e1 bf
       0.16925069233565937 -0.5344942414237048
0001c0 12 7b 56 42 c2 42 e3 bf 5c 36 59 e9 39 49 e5 3f
       -0.6018992705975015 0.6651887471759426
0001d0 00 22 2a 07 e6 6a b3 3f 80 f4 b1 9d 36 4b 86 bf
       0.07584989237705742 -0.010885645568345703
0001e0 d8 1e 7a de c0 24 ca bf 8c cf ca bf 3b fd e0 bf
       -0.2042466245950354 -0.5309122796956998
0001f0 cc 5b ac 75 fd a0 dc 3f c0 36 9d e3 cd 4a 91 3f
       0.4473260544922908 0.01688691808458631
000200 50 3f 90 b6 c6 cc c9 bf 12 61 2d 32 45 be e5 bf
       -0.20156177438956968 -0.6794763546013505
000210 30 d6 b3 e3 27 4d d4 bf 40 d2 76 f9 7f 1c 9b 3f
       -0.3172092174203014 0.02647590599163352
000220 bc 8c 84 c4 99 e3 d2 3f 18 66 b3 a8 44 16 d1 3f
       0.2951416415327903 0.2669841430157205
000230 c8 eb c2 ca 95 dc ea 3f 16 52 3e 98 ff 08 ed 3f
       0.8394268951591295 0.9073484395508469
000240 d0 1f fd 93 85 44 b6 3f cc 57 95 e1 3f 5b e0 bf
       0.08698305953032492 -0.5111388593602384
000250 20 f0 58 72 30 af da bf 08 04 08 d8 98 b1 d0 bf
       -0.4169427029298749 -0.2608396634751107
000260 18 95 b9 4c 9f 6e e3 3f 70 2a a0 d9 67 88 ec bf
       0.6072536943944753 -0.8916510820866517
000270 72 db 0d 3d 31 56 eb 3f 70 b1 ff 57 29 fc db bf
       0.8542715256179305 -0.4372657164920133
000280 b0 aa dd 28 cb f1 cb 3f fe 8d 25 14 ab 67 ea bf
       0.21831645484356477 -0.8251548188677018
000290 a0 ad d8 da 40 2c af bf c6 0f 6d a0 ea 23 e0 bf
       -0.06088450118508182 -0.5043843396492711
0002a0 80 d1 72 05 0b 32 c2 bf 70 7a 9d 5b cc ac bd bf
       -0.14215219274559487 -0.1159179423970984
0002b0 5a 72 4b 75 12 ca e5 3f 80 cb 0f 64 fe a1 d9 bf
       0.680917004672277 -0.40051231166506085
0002c0 94 ab 74 b6 df 15 dc 3f 30 b1 48 f4 0c 63 c5 bf
       0.43883507554954204 -0.16708528449942994
0002d0 b8 e3 7f 7b 9b 2d de bf 10 3c 9b c3 01 0b c1 3f
       -0.4715336519289468 0.1331484036549857
0002e0 5c a5 8e f2 a3 35 d2 bf dc 68 2b 10 25 4b e5 bf
       -0.2845239514086495 -0.6654229465305224
0002f0 c4 35 71 1f d2 49 ea bf 76 f6 85 e6 10 6d e1 bf
       -0.8215113271814336 -0.5445637228401228
000300 84 9f bc 4e f5 9e eb bf 14 40 a8 73 8a 4a e0 3f
       -0.8631540811374951 0.5090992220812063
000310 00 1c 20 82 ba 83 bf bf 20 bb 84 9d 41 2b a0 bf
       -0.1231037681283027 -0.03158001945336353
000320 d4 8f 38 98 90 7d db 3f 10 15 9d 66 a7 2c e8 bf
       0.4295388685734427 -0.7554509166881491
000330 14 bd eb cc f6 69 e5 3f 38 8f 75 65 80 6d d1 bf
       0.6691850664482524 -0.2723084441006338
000340 00 30 ca ea ed 6c 35 bf ec 50 4a 8f 1f dd df bf
       -0.00032692726635086267 -0.4978712939566907
000350 34 4b 8a d6 84 24 e5 3f e2 e2 39 ba 49 ce ea 3f
       0.6607078733671643 0.8376816403607246
000360 8a 28 d0 c0 c7 08 e7 bf e2 19 61 1a ab 43 e8 bf
       -0.7198218122369024 -0.7582602992268301
000370 54 02 6f 11 e0 c2 e6 3f 9a 0d ca 9a ac 79 e1 3f
       0.7112884846211025 0.5461028121211939
000380 b0 86 3f 9b 22 91 c6 3f 90 7e 42 55 08 db d9 3f
       0.1763041742370226 0.4039936859717068
000390 ec 97 b1 22 3f ea e4 3f 00 63 95 fe a7 b7 9c bf
       0.6535945584880642 -0.028044342912241227
0003a0 04 6b b4 11 11 79 d4 3f 50 3f e2 7a 32 e8 b2 3f
       0.31988932351093546 0.07385554790584803
0003b0 fa 3f 8f d7 b6 8b e4 bf 3c 7a 36 64 01 da d7 bf
       -0.6420549593112803 -0.3726809958115245
0003c0 3e 4f f7 19 4d d0 e2 bf 00 b3 99 d8 0f c6 9d 3f
       -0.5879273898267241 0.02907585868381357
0003d0 a0 cc 7a 80 39 de a5 3f 76 fd 47 ec eb 80 e4 3f
       0.042711064275317456 0.6407374968402297
0003e0 9c a0 c8 b0 37 56 de 3f c8 fd 94 37 dd 9a ef 3f
       0.4740123011020019 0.9876543126665007
0003f0 0c 2a 78 8d 8e 0c d9 3f c0 0d b9 06 30 c4 9a bf
       0.3913914090668704 -0.026139021311122113
000400 34 6f ae 80 cf 29 d4 bf 40 37 93 0c a8 fb a7 3f
       -0.3150519138960022 0.04684186128143475
000410 1c ee 88 5b e9 fa d4 3f 08 5b e6 37 cc ee ca 3f
       0.3278144258399338 0.21041252831920354
000420 64 c4 26 4c d9 a0 e9 bf 70 29 03 ac e5 2f e6 bf
       -0.8008848655064296 -0.6933468207946998
000430 e0 2d 9d 5b 37 11 ea 3f 68 a6 7d 5f 0e 1a e8 bf
       0.8146015920005389 -0.7531806817107283
000440 68 6c 4b 46 66 06 de 3f 00 f5 33 c5 e0 ea b2 bf
       0.46914059509953754 -0.07389645399594613
000450 78 a8 ba 8e 90 70 e0 bf ae 54 42 52 ae 0e e6 3f
       -0.5137408054045087 0.6892921072600495
000460 78 53 c2 60 fe 89 dc 3f f8 f8 06 00 d3 7a ea bf
       0.445922464839263 -0.8274931908161127
000470 46 49 e5 9a e8 9e ed bf c8 96 6e 0a 0b 0c c2 3f
       -0.925648024111333 0.14099252709745813
000480 b0 dd 36 78 48 fc b9 3f c2 db 76 ec 30 16 ef bf
       0.10150578436775137 -0.9714588755076579
000490 f8 c3 ea 43 56 00 d9 bf 80 14 90 cc 09 82 e9 3f
       -0.39064556725048716 0.7971238131873548
0004a0 d6 1a 86 1a bc ad ec 3f 40 12 96 49 81 e3 97 3f
       0.8962078588527571 0.02332880031237239
0004b0 8c fd 60 b6 79 d9 d9 bf e8 51 83 7a 6e 0b ed 3f
       -0.40389864740787895 0.9076454537230889
0004c0 14 f1 af 76 f5 6e ee 3f 18 54 31 4f 55 99 d4 3f
       0.9510447805510318 0.32185871823941303
0004d0 f0 f4 f3 0a ec d3 b4 3f 84 c2 62 79 e6 eb e6 3f
       0.08135867373853833 0.7162964220825221
0004e0 20 44 19 d2 70 69 a7 3f 80 65 3b a9 09 0e ec 3f
       0.045726323744595954 0.8767135911286204
0004f0 00 dd b6 ae 6b be dd 3f d6 c5 12 c1 85 9d e5 3f
       0.4647473531908446 0.6754788180316449
000500 5c 45 47 ee 30 12 d0 bf 38 83 77 53 65 ba c8 3f
       -0.2511102988183518 0.19318834853677358
000510 20 58 36 be c9 91 ab 3f ac 8e f0 01 4c 6a d8 bf
       0.05384664961745522 -0.3814878481809767
000520 b8 70 62 ec e9 33 e9 3f 72 92 bf 48 87 65 eb 3f
       0.787587129295864 0.8561436100831783
000530 26 4a d5 78 98 bc ea bf a6 9b 2e ea 71 5d e1 3f
       -0.8355219230673512 0.5426568578594597
000540 20 16 8b 4b b8 cb ef bf 10 bf 65 50 0b f0 c0 bf
       -0.9936181521849825 -0.13232556749016355
000550 34 08 08 0a 4c 40 e2 3f dc c4 c1 64 9e 3c e7 3f
       0.5703487583089157 0.7261497466953659
000560 c0 84 a0 d0 37 2a bb bf 74 84 9d 65 f5 e8 e1 3f
       -0.1061129459708523 0.5596873268770097
000570 32 5e 12 dd 4a ef eb bf 0c 45 76 c7 90 90 d3 3f
       -0.8729605024154294 0.3056985805388457
000580 76 96 11 a0 7b ce e1 bf f0 0f 52 1a bc 81 df 3f
       -0.5564554334966505 0.4922933823620488
000590 08 8d c2 a3 9f 10 ce 3f 68 06 d1 3e 48 e0 df 3f
       0.23488231178371444 0.49806409964012355
0005a0 44 bd 6f 52 40 2c e5 3f f2 0b 0c 47 62 a4 ed bf
       0.6616517648780378 -0.9263163936269605
0005b0 64 0c ab d8 83 c4 e7 bf 04 4e ad 98 d4 c3 dd bf
       -0.7427386504936178 -0.4650775423990299
0005c0 aa 71 73 d8 d8 33 e8 3f 82 f5 25 f9 21 51 e6 3f
       0.7563289859349898 0.697403895013551
0005d0 60 8c b1 1f e9 9a ba bf 26 d5 b3 b9 d8 56 e0 bf
       -0.1039262487770869 -0.5106013895989789
0005e0 1e 5b d3 a3 ea 29 e5 3f 40 9f b0 b5 a3 62 db bf
       0.6613667678564956 -0.4278954767528269
0005f0 60 c1 d4 f3 28 19 be bf d4 c2 34 08 60 fe ee 3f
       -0.1175714106836998 0.9685516510272358
000600 d0 f9 5c 94 9c 13 c7 bf b8 92 06 5b d5 63 c4 3f
       -0.1802859997205375 0.1592966742001829
000610 ec 43 1c aa 2e 45 db 3f 10 33 2b 3b eb 3f e9 3f
       0.426097551463555 0.789052596630059
000620 ca 4f 04 28 7c 07 ef 3f fc 63 53 fe 9b 4b e2 bf
       0.9696636945322947 -0.5717296569156356
000630 c4 a7 85 8d 23 29 d2 3f 08 a4 6d 7a 5f f4 ef bf
       0.28376091785923685 -0.9985806838204789
000640 80 39 0b 0c 98 16 ae 3f 9c 21 74 73 32 66 e2 3f
       0.05876612803477865 0.5749752287820686
000650 98 49 01 8d 36 56 de bf a4 3a 2a 7d e0 9a ef bf
       -0.4740120293619383 -0.987655872786338
000660 70 1a 23 09 3e b4 ce 3f a0 1b 17 d3 9f 0d c6 3f
       0.2398755592932562 0.17229078108922824
000670 80 b7 a5 b3 71 76 da bf e0 7b 04 a7 2d 8c c9 bf
       -0.4134792570465535 -0.1995904031291209
000680 80 17 2f 57 3c ee bd 3f f4 ea 1c 09 c2 c3 e7 3f
       0.11691643837465726 0.7426462343204023
000690 c0 9e ef c8 f4 d8 ef 3f 18 94 cf 3e 06 42 e4 bf
       0.9952339100390972 -0.6330596186422808
0006a0 d8 a7 85 f4 31 fc c4 3f 88 b9 06 a2 f7 5f c5 3f
       0.16394638480716028 0.1669911900657548
0006b0 26 33 9a ba c9 85 ef 3f e8 77 57 d7 e1 e5 e2 bf
       0.9850815434052478 -0.590561791028219
0006c0 58 5f 58 56 f1 44 dc bf b4 a6 9a a5 f7 0e e9 3f
       -0.44170792991780194 0.7830770716147613
0006d0 04 2c 47 e2 3d 6d d3 bf e0 7d ed c6 d1 48 a2 bf
       -0.30354258630239905 -0.03571181824986147
0006e0 f6 c8 f7 a0 1a 29 ea 3f 00 bc be 65 19 f3 69 bf
       0.8175175804047103 -0.003167676548364806
0006f0 d0 d3 04 e4 4e 35 e4 3f 12 aa db 8b 24 30 e3 bf
       0.6315073445790578 -0.5996268016436395
000700 98 fe ea a5 52 38 d1 3f f4 8b 9c 99 b9 48 df 3f
       0.2690626735966162 0.48881378174900125
000710 ec b6 99 71 52 8e d1 3f 10 ae e4 40 17 ca cc 3f
       0.2743116483096475 0.22491732281319843
000720 90 91 b5 3c f0 92 c7 3f 44 94 e6 29 d6 ec e0 bf
       0.1841717049056908 -0.5289107149479908
000730 4c 64 1b 65 fe fd eb bf 00 b2 ee 8b 4d 59 6a 3f
       -0.8747550940271451 0.003216411073898806
000740 66 dc ca 8e dd cd ea bf 60 2f d1 0a 1b 82 b7 bf
       -0.8376300610460816 -0.09182900442209307
000750 18 4b e4 f1 7b 9f cc 3f d0 c4 8c 8e 30 4d d3 bf
       0.22361707030412314 -0.3015862838829664
000760 8a cc 9f 92 fa f7 e8 bf 28 f5 35 4c 41 d1 c3 bf
       -0.7802708495859332 -0.15482345792035201
000770 d8 72 d1 ae 66 0e c0 bf 28 86 42 90 45 ea ef bf
       -0.12543948684733297 -0.9973476235938437
000780 10 66 75 66 f5 6a dc 3f c8 33 9b 50 dc 00 c1 bf
       0.4440282345363764 -0.13283876357891544
000790 6e ab 5f a8 23 a0 ea bf cc c6 26 16 9d 70 d4 bf
       -0.8320482529210105 -0.31937338984708386
0007a0 80 19 71 95 3f 84 8c 3f a4 ef e7 88 41 11 da 3f
       0.013924118755437531 0.40730322236754035
0007b0 20 a6 db c9 be 0a e9 3f ca 63 84 7a 42 81 ea 3f
       0.7825616781748899 0.8282787697709122
0007c0 da 20 c7 c2 e7 f6 ed bf 30 77 74 b0 db 4a bc bf
       -0.9363898090605531 -0.11051724489194892
0007d0 80 ad 5f 13 1a 16 a0 3f 80 14 4f 7b ad 07 bb bf
       0.03141862379546989 -0.10558590183707572
0007e0 1c d4 c4 59 72 d6 d3 3f f8 e6 69 40 93 86 d9 bf
       0.3099637867592848 -0.39883881845854274
0007f0 9c 6f a6 ca 58 b4 d2 bf 3a b9 99 93 4b 3c ec 3f
       -0.29225749769261156 0.8823602564641881
